…
The value is the same before and after calling `init_weights` of UniVLAInternVLSeq  

lm_head.base_model.model.mlp1.3.weight - torch.Size([896, 896]): 
The value is the same before and after calling `init_weights` of UniVLAInternVLSeq  

lm_head.base_model.model.mlp1.3.bias - torch.Size([896]): 
The value is the same before and after calling `init_weights` of UniVLAInternVLSeq  
2026-04-23 15:30:57,236 - mmdet - INFO - Model:
UniVLAInternVLSeq(
  (pts_bbox_head): UniDETHeadSeq(
    (loss_cls): FocalLoss()
    (loss_bbox): L1Loss()
    (input_norm): ModuleList(
      (0-5): 6 x Identity()
    )
    (cls_branches): ModuleList(
      (0-5): 6 x Sequential(
        (0): Linear(in_features=896, out_features=896, bias=True)
        (1): LayerNorm((896,), eps=1e-05, elementwise_affine=True)
        (2): ReLU(inplace=True)
        (3): Linear(in_features=896, out_features=896, bias=True)
        (4): LayerNorm((896,), eps=1e-05, elementwise_affine=True)
        (5): ReLU(inplace=True)
        (6): Linear(in_features=896, out_features=10, bias=True)
      )
    )
    (reg_branches): ModuleList(
      (0-5): 6 x Sequential(
        (0): Linear(in_features=896, out_features=896, bias=True)
        (1): ReLU()
        (2): Linear(in_features=896, out_features=896, bias=True)
        (3): ReLU()
        (4): Linear(in_features=896, out_features=10, bias=True)
      )
    )
    (reference_points): Embedding(600, 3)
    (pseudo_reference_points): Embedding(300, 3)
    (loss_iou): GIoULoss()
    (query_pos): Sequential(
      (0): Linear(in_features=396, out_features=1024, bias=True)
      (1): ReLU()
      (2): Linear(in_features=1024, out_features=896, bias=True)
    )
    (time_embedding): Sequential(
      (0): Linear(in_features=896, out_features=896, bias=True)
      (1): LayerNorm((896,), eps=1e-05, elementwise_affine=True)
    )
    (ego_pose_pe): MLN(
      (reduce): Sequential(
        (0): Linear(in_features=156, out_features=896, bias=True)
        (1): ReLU()
      )
      (gamma): Linear(in_features=896, out_features=896, bias=True)
      (beta): Linear(in_features=896, out_features=896, bias=True)
      (ln): LayerNorm((896,), eps=1e-05, elementwise_affine=False)
    )
  )
  (img_backbone): EVAViT(
    (patch_embed): PatchEmbed(
      (proj): Conv2d(3, 1024, kernel_size=(16, 16), stride=(16, 16))
    )
    (rope_win): VisionRotaryEmbeddingFast()
    (rope_glb): VisionRotaryEmbeddingFast()
    (blocks): ModuleList(
      (0): Block(
        (norm1): LayerNorm((1024,), eps=1e-06, elementwise_affine=True)
        (attn): Attention(
          (q_proj): Linear(in_features=1024, out_features=1024, bias=False)
          (k_proj): Linear(in_features=1024, out_features=1024, bias=False)
          (v_proj): Linear(in_features=1024, out_features=1024, bias=False)
          (rope): VisionRotaryEmbeddingFast()
          (proj): Linear(in_features=1024, out_features=1024, bias=True)
          (inner_attn_ln): Identity()
          (inner_attn): FlashAttention()
        )
        (drop_path): Identity()
        (norm2): LayerNorm((1024,), eps=1e-06, elementwise_affine=True)
        (mlp): SwiGLU(
          (w1): Linear(in_features=1024, out_features=2730, bias=True)
          (w2): Linear(in_features=1024, out_features=2730, bias=True)
          (act): SiLU()
          (ffn_ln): LayerNorm((2730,), eps=1e-06, elementwise_affine=True)
          (w3): Linear(in_features=2730, out_features=1024, bias=True)
          (drop): Dropout(p=0.0, inplace=False)
        )
      )
      (1-23): 23 x Block(
        (norm1): LayerNorm((1024,), eps=1e-06, elementwise_affine=True)
        (attn): Attention(
          (q_proj): Linear(in_features=1024, out_features=1024, bias=False)
          (k_proj): Linear(in_features=1024, out_features=1024, bias=False)
          (v_proj): Linear(in_features=1024, out_features=1024, bias=False)
          (rope): VisionRotaryEmbeddingFast()
          (proj): Linear(in_features=1024, out_features=1024, bias=True)
          (inner_attn_ln): Identity()
          (inner_attn): FlashAttention()
        )
        (drop_path): DropPath()
        (norm2): LayerNorm((1024,), eps=1e-06, elementwise_affine=True)
        (mlp): SwiGLU(
          (w1): Linear(in_features=1024, out_features=2730, bias=True)
          (w2): Linear(in_features=1024, out_features=2730, bias=True)
          (act): SiLU()
          (ffn_ln): LayerNorm((2730,), eps=1e-06, elementwise_affine=True)
          (w3): Linear(in_features=2730, out_features=1024, bias=True)
          (drop): Dropout(p=0.0, inplace=False)
        )
      )
    )
  )
  (grid_mask): GridMask()
  (query_pos): Sequential(
    (0): Linear(in_features=396, out_features=1024, bias=True)
    (1): ReLU()
    (2): Linear(in_features=1024, out_features=896, bias=True)
  )
  (time_embedding): Sequential(
    (0): Linear(in_features=896, out_features=896, bias=True)
    (1): LayerNorm((896,), eps=1e-05, elementwise_affine=True)
  )
  (ego_pose_pe): MLN(
    (reduce): Sequential(
      (0): Linear(in_features=156, out_features=896, bias=True)
      (1): ReLU()
    )
    (gamma): Linear(in_features=896, out_features=896, bias=True)
    (beta): Linear(in_features=896, out_features=896, bias=True)
    (ln): LayerNorm((896,), eps=1e-05, elementwise_affine=False)
  )
  (map_head): UniMapHeadSeq(
    (loss_cls): FocalLoss()
    (loss_bbox): L1Loss()
    (input_norm): ModuleList(
      (0-5): 6 x Identity()
    )
    (cls_branches): ModuleList(
      (0-5): 6 x Sequential(
        (0): Linear(in_features=896, out_features=896, bias=True)
        (1): LayerNorm((896,), eps=1e-05, elementwise_affine=True)
        (2): ReLU(inplace=True)
        (3): Linear(in_features=896, out_features=896, bias=True)
        (4): LayerNorm((896,), eps=1e-05, elementwise_affine=True)
        (5): ReLU(inplace=True)
        (6): Linear(in_features=896, out_features=1, bias=True)
      )
    )
    (reg_branches): ModuleList(
      (0-5): 6 x Sequential(
        (0): Linear(in_features=896, out_features=896, bias=True)
        (1): ReLU()
        (2): Linear(in_features=896, out_features=896, bias=True)
        (3): ReLU()
        (4): Linear(in_features=896, out_features=33, bias=True)
      )
    )
    (reference_points_lane): Linear(in_features=896, out_features=3, bias=True)
    (points_embedding_lane): Embedding(11, 896)
    (instance_embedding_lane): Embedding(600, 896)
    (loss_dir): PtsDirCosLoss()
    (query_pos): Sequential(
      (0): Linear(in_features=396, out_features=1024, bias=True)
      (1): ReLU()
      (2): Linear(in_features=1024, out_features=896, bias=True)
    )
    (time_embedding): Sequential(
      (0): Linear(in_features=896, out_features=896, bias=True)
      (1): LayerNorm((896,), eps=1e-05, elementwise_affine=True)
    )
    (ego_pose_pe): MLN(
      (reduce): Sequential(
        (0): Linear(in_features=156, out_features=896, bias=True)
        (1): ReLU()
      )
      (gamma): Linear(in_features=896, out_features=896, bias=True)
      (beta): Linear(in_features=896, out_features=896, bias=True)
      (ln): LayerNorm((896,), eps=1e-05, elementwise_affine=False)
    )
  )
  (ego_status_embed): UniEgoStatusHead(
    (can_bus_embed): Sequential(
      (0): Linear(in_features=74, out_features=256, bias=True)
      (1): ReLU()
      (2): Linear(in_features=256, out_features=896, bias=True)
    )
  )
  (position_encoder): Sequential(
    (0): Linear(in_features=192, out_features=896, bias=True)
    (1): ReLU()
    (2): Linear(in_features=896, out_features=896, bias=True)
  )
  (e2e_head): UniMotionPlanningHeadEgo(
    (temporal_embedding): Embedding(6, 896)
    (mlp_position_encoder): Sequential(
      (0): Linear(in_features=1, out_features=896, bias=True)
      (1): ReLU()
      (2): Linear(in_features=896, out_features=896, bias=True)
    )
    (plan_loss_cls): FocalLoss()
    (plan_loss_reg): L1Loss()
    (plan_loss_status): L1Loss()
    (can_bus_embed): Sequential(
      (0): Linear(in_features=74, out_features=896, bias=True)
      (1): ReLU()
      (2): Linear(in_features=896, out_features=896, bias=True)
    )
    (plan_reg_branches): ModuleList(
      (0-5): 6 x Sequential(
        (0): Linear(in_features=896, out_features=896, bias=True)
        (1): ReLU()
        (2): Linear(in_features=896, out_features=896, bias=True)
        (3): ReLU()
        (4): Linear(in_features=896, out_features=2, bias=True)
      )
    )
    (plan_cls_branches): ModuleList(
      (0-5): 6 x Sequential(
        (0): Linear(in_features=896, out_features=896, bias=True)
        (1): ReLU(inplace=True)
        (2): LayerNorm((896,), eps=1e-05, elementwise_affine=True)
        (3): Linear(in_features=896, out_features=896, bias=True)
        (4): ReLU(inplace=True)
        (5): LayerNorm((896,), eps=1e-05, elementwise_affine=True)
        (6): Linear(in_features=896, out_features=1, bias=True)
      )
    )
    (plan_status_branches): ModuleList(
      (0-5): 6 x Sequential(
        (0): Linear(in_features=896, out_features=896, bias=True)
        (1): ReLU()
        (2): Linear(in_features=896, out_features=896, bias=True)
        (3): ReLU()
        (4): Linear(in_features=896, out_features=74, bias=True)
      )
    )
    (plan_anchor_encoder): Sequential(
      (0): Linear(in_features=896, out_features=896, bias=True)
      (1): ReLU(inplace=True)
      (2): LayerNorm((896,), eps=1e-05, elementwise_affine=True)
      (3): Linear(in_features=896, out_features=896, bias=True)
    )
    (input_norm): ModuleList(
      (0-5): 6 x Identity()
    )
  )
  (lm_head): PeftModelForCausalLM(
    (base_model): LoraModel(
      (model): UniInternVLChatModel(
        (vision_model): InternVisionModel(
          (embeddings): InternVisionEmbeddings(
            (patch_embedding): Conv2d(3, 1024, kernel_size=(14, 14), stride=(14, 14))
          )
          (encoder): InternVisionEncoder(
            (layers): ModuleList(
              (0): InternVisionEncoderLayer(
                (attn): InternAttention(
                  (qkv): Linear(in_features=1024, out_features=3072, bias=True)
                  (attn_drop): Dropout(p=0.0, inplace=False)
                  (proj_drop): Dropout(p=0.0, inplace=False)
                  (inner_attn): FlashAttention()
                  (proj): Linear(in_features=1024, out_features=1024, bias=True)
                )
                (mlp): InternMLP(
                  (act): GELUActivation()
                  (fc1): Linear(in_features=1024, out_features=4096, bias=True)
                  (fc2): Linear(in_features=4096, out_features=1024, bias=True)
                )
                (norm1): LayerNorm((1024,), eps=1e-06, elementwise_affine=True)
                (norm2): LayerNorm((1024,), eps=1e-06, elementwise_affine=True)
                (drop_path1): Identity()
                (drop_path2): Identity()
              )
              (1): InternVisionEncoderLayer(
                (attn): InternAttention(
                  (qkv): Linear(in_features=1024, out_features=3072, bias=True)
                  (attn_drop): Dropout(p=0.0, inplace=False)
                  (proj_drop): Dropout(p=0.0, inplace=False)
                  (inner_attn): FlashAttention()
                  (proj): Linear(in_features=1024, out_features=1024, bias=True)
                )
                (mlp): InternMLP(
                  (act): GELUActivation()
                  (fc1): Linear(in_features=1024, out_features=4096, bias=True)
                  (fc2): Linear(in_features=4096, out_features=1024, bias=True)
                )
                (norm1): LayerNorm((1024,), eps=1e-06, elementwise_affine=True)
                (norm2): LayerNorm((1024,), eps=1e-06, elementwise_affine=True)
                (drop_path1): DropPath(drop_prob=0.004)
                (drop_path2): DropPath(drop_prob=0.004)
              )
              (2): InternVisionEncoderLayer(
                (attn): InternAttention(
                  (qkv): Linear(in_features=1024, out_features=3072, bias=True)
                  (attn_drop): Dropout(p=0.0, inplace=False)
                  (proj_drop): Dropout(p=0.0, inplace=False)
                  (inner_attn): FlashAttention()
                  (proj): Linear(in_features=1024, out_features=1024, bias=True)
                )
                (mlp): InternMLP(
                  (act): GELUActivation()
                  (fc1): Linear(in_features=1024, out_features=4096, bias=True)
                  (fc2): Linear(in_features=4096, out_features=1024, bias=True)
                )
                (norm1): LayerNorm((1024,), eps=1e-06, elementwise_affine=True)
                (norm2): LayerNorm((1024,), eps=1e-06, elementwise_affine=True)
                (drop_path1): DropPath(drop_prob=0.009)
                (drop_path2): DropPath(drop_prob=0.009)
              )
              (3): InternVisionEncoderLayer(
                (attn): InternAttention(
                  (qkv): Linear(in_features=1024, out_features=3072, bias=True)
                  (attn_drop): Dropout(p=0.0, inplace=False)
                  (proj_drop): Dropout(p=0.0, inplace=False)
                  (inner_attn): FlashAttention()
                  (proj): Linear(in_features=1024, out_features=1024, bias=True)
                )
                (mlp): InternMLP(
                  (act): GELUActivation()
                  (fc1): Linear(in_features=1024, out_features=4096, bias=True)
                  (fc2): Linear(in_features=4096, out_features=1024, bias=True)
                )
                (norm1): LayerNorm((1024,), eps=1e-06, elementwise_affine=True)
                (norm2): LayerNorm((1024,), eps=1e-06, elementwise_affine=True)
                (drop_path1): DropPath(drop_prob=0.013)
                (drop_path2): DropPath(drop_prob=0.013)
              )
              (4): InternVisionEncoderLayer(
                (attn): InternAttention(
                  (qkv): Linear(in_features=1024, out_features=3072, bias=True)
                  (attn_drop): Dropout(p=0.0, inplace=False)
                  (proj_drop): Dropout(p=0.0, inplace=False)
                  (inner_attn): FlashAttention()
                  (proj): Linear(in_features=1024, out_features=1024, bias=True)
                )
                (mlp): InternMLP(
                  (act): GELUActivation()
                  (fc1): Linear(in_features=1024, out_features=4096, bias=True)
                  (fc2): Linear(in_features=4096, out_features=1024, bias=True)
                )
                (norm1): LayerNorm((1024,), eps=1e-06, elementwise_affine=True)
                (norm2): LayerNorm((1024,), eps=1e-06, elementwise_affine=True)
                (drop_path1): DropPath(drop_prob=0.017)
                (drop_path2): DropPath(drop_prob=0.017)
              )
              (5): InternVisionEncoderLayer(
                (attn): InternAttention(
                  (qkv): Linear(in_features=1024, out_features=3072, bias=True)
                  (attn_drop): Dropout(p=0.0, inplace=False)
                  (proj_drop): Dropout(p=0.0, inplace=False)
                  (inner_attn): FlashAttention()
                  (proj): Linear(in_features=1024, out_features=1024, bias=True)
                )
                (mlp): InternMLP(
                  (act): GELUActivation()
                  (fc1): Linear(in_features=1024, out_features=4096, bias=True)
                  (fc2): Linear(in_features=4096, out_features=1024, bias=True)
                )
                (norm1): LayerNorm((1024,), eps=1e-06, elementwise_affine=True)
                (norm2): LayerNorm((1024,), eps=1e-06, elementwise_affine=True)
                (drop_path1): DropPath(drop_prob=0.022)
                (drop_path2): DropPath(drop_prob=0.022)
              )
              (6): InternVisionEncoderLayer(
                (attn): InternAttention(
                  (qkv): Linear(in_features=1024, out_features=3072, bias=True)
                  (attn_drop): Dropout(p=0.0, inplace=False)
                  (proj_drop): Dropout(p=0.0, inplace=False)
                  (inner_attn): FlashAttention()
                  (proj): Linear(in_features=1024, out_features=1024, bias=True)
                )
                (mlp): InternMLP(
                  (act): GELUActivation()
                  (fc1): Linear(in_features=1024, out_features=4096, bias=True)
                  (fc2): Linear(in_features=4096, out_features=1024, bias=True)
                )
                (norm1): LayerNorm((1024,), eps=1e-06, elementwise_affine=True)
                (norm2): LayerNorm((1024,), eps=1e-06, elementwise_affine=True)
                (drop_path1): DropPath(drop_prob=0.026)
                (drop_path2): DropPath(drop_prob=0.026)
              )
              (7): InternVisionEncoderLayer(
                (attn): InternAttention(
                  (qkv): Linear(in_features=1024, out_features=3072, bias=True)
                  (attn_drop): Dropout(p=0.0, inplace=False)
                  (proj_drop): Dropout(p=0.0, inplace=False)
                  (inner_attn): FlashAttention()
                  (proj): Linear(in_features=1024, out_features=1024, bias=True)
                )
                (mlp): InternMLP(
                  (act): GELUActivation()
                  (fc1): Linear(in_features=1024, out_features=4096, bias=True)
                  (fc2): Linear(in_features=4096, out_features=1024, bias=True)
                )
                (norm1): LayerNorm((1024,), eps=1e-06, elementwise_affine=True)
                (norm2): LayerNorm((1024,), eps=1e-06, elementwise_affine=True)
                (drop_path1): DropPath(drop_prob=0.031)
                (drop_path2): DropPath(drop_prob=0.031)
              )
              (8): InternVisionEncoderLayer(
                (attn): InternAttention(
                  (qkv): Linear(in_features=1024, out_features=3072, bias=True)
                  (attn_drop): Dropout(p=0.0, inplace=False)
                  (proj_drop): Dropout(p=0.0, inplace=False)
                  (inner_attn): FlashAttention()
                  (proj): Linear(in_features=1024, out_features=1024, bias=True)
                )
                (mlp): InternMLP(
                  (act): GELUActivation()
                  (fc1): Linear(in_features=1024, out_features=4096, bias=True)
                  (fc2): Linear(in_features=4096, out_features=1024, bias=True)
                )
                (norm1): LayerNorm((1024,), eps=1e-06, elementwise_affine=True)
                (norm2): LayerNorm((1024,), eps=1e-06, elementwise_affine=True)
                (drop_path1): DropPath(drop_prob=0.035)
                (drop_path2): DropPath(drop_prob=0.035)
              )
              (9): InternVisionEncoderLayer(
                (attn): InternAttention(
                  (qkv): Linear(in_features=1024, out_features=3072, bias=True)
                  (attn_drop): Dropout(p=0.0, inplace=False)
                  (proj_drop): Dropout(p=0.0, inplace=False)
                  (inner_attn): FlashAttention()
                  (proj): Linear(in_features=1024, out_features=1024, bias=True)
                )
                (mlp): InternMLP(
                  (act): GELUActivation()
                  (fc1): Linear(in_features=1024, out_features=4096, bias=True)
                  (fc2): Linear(in_features=4096, out_features=1024, bias=True)
                )
                (norm1): LayerNorm((1024,), eps=1e-06, elementwise_affine=True)
                (norm2): LayerNorm((1024,), eps=1e-06, elementwise_affine=True)
                (drop_path1): DropPath(drop_prob=0.039)
                (drop_path2): DropPath(drop_prob=0.039)
              )
              (10): InternVisionEncoderLayer(
                (attn): InternAttention(
                  (qkv): Linear(in_features=1024, out_features=3072, bias=True)
                  (attn_drop): Dropout(p=0.0, inplace=False)
                  (proj_drop): Dropout(p=0.0, inplace=False)
                  (inner_attn): FlashAttention()
                  (proj): Linear(in_features=1024, out_features=1024, bias=True)
                )
                (mlp): InternMLP(
                  (act): GELUActivation()
                  (fc1): Linear(in_features=1024, out_features=4096, bias=True)
                  (fc2): Linear(in_features=4096, out_features=1024, bias=True)
                )
                (norm1): LayerNorm((1024,), eps=1e-06, elementwise_affine=True)
                (norm2): LayerNorm((1024,), eps=1e-06, elementwise_affine=True)
                (drop_path1): DropPath(drop_prob=0.044)
                (drop_path2): DropPath(drop_prob=0.044)
              )
              (11): InternVisionEncoderLayer(
                (attn): InternAttention(
                  (qkv): Linear(in_features=1024, out_features=3072, bias=True)
                  (attn_drop): Dropout(p=0.0, inplace=False)
                  (proj_drop): Dropout(p=0.0, inplace=False)
                  (inner_attn): FlashAttention()
                  (proj): Linear(in_features=1024, out_features=1024, bias=True)
                )
                (mlp): InternMLP(
                  (act): GELUActivation()
                  (fc1): Linear(in_features=1024, out_features=4096, bias=True)
                  (fc2): Linear(in_features=4096, out_features=1024, bias=True)
                )
                (norm1): LayerNorm((1024,), eps=1e-06, elementwise_affine=True)
                (norm2): LayerNorm((1024,), eps=1e-06, elementwise_affine=True)
                (drop_path1): DropPath(drop_prob=0.048)
                (drop_path2): DropPath(drop_prob=0.048)
              )
              (12): InternVisionEncoderLayer(
                (attn): InternAttention(
                  (qkv): Linear(in_features=1024, out_features=3072, bias=True)
                  (attn_drop): Dropout(p=0.0, inplace=False)
                  (proj_drop): Dropout(p=0.0, inplace=False)
                  (inner_attn): FlashAttention()
                  (proj): Linear(in_features=1024, out_features=1024, bias=True)
                )
                (mlp): InternMLP(
                  (act): GELUActivation()
                  (fc1): Linear(in_features=1024, out_features=4096, bias=True)
                  (fc2): Linear(in_features=4096, out_features=1024, bias=True)
                )
                (norm1): LayerNorm((1024,), eps=1e-06, elementwise_affine=True)
                (norm2): LayerNorm((1024,), eps=1e-06, elementwise_affine=True)
                (drop_path1): DropPath(drop_prob=0.052)
                (drop_path2): DropPath(drop_prob=0.052)
              )
              (13): InternVisionEncoderLayer(
                (attn): InternAttention(
                  (qkv): Linear(in_features=1024, out_features=3072, bias=True)
                  (attn_drop): Dropout(p=0.0, inplace=False)
                  (proj_drop): Dropout(p=0.0, inplace=False)
                  (inner_attn): FlashAttention()
                  (proj): Linear(in_features=1024, out_features=1024, bias=True)
                )
                (mlp): InternMLP(
                  (act): GELUActivation()
                  (fc1): Linear(in_features=1024, out_features=4096, bias=True)
                  (fc2): Linear(in_features=4096, out_features=1024, bias=True)
                )
                (norm1): LayerNorm((1024,), eps=1e-06, elementwise_affine=True)
                (norm2): LayerNorm((1024,), eps=1e-06, elementwise_affine=True)
                (drop_path1): DropPath(drop_prob=0.056)
                (drop_path2): DropPath(drop_prob=0.056)
              )
              (14): InternVisionEncoderLayer(
                (attn): InternAttention(
                  (qkv): Linear(in_features=1024, out_features=3072, bias=True)
                  (attn_drop): Dropout(p=0.0, inplace=False)
                  (proj_drop): Dropout(p=0.0, inplace=False)
                  (inner_attn): FlashAttention()
                  (proj): Linear(in_features=1024, out_features=1024, bias=True)
                )
                (mlp): InternMLP(
                  (act): GELUActivation()
                  (fc1): Linear(in_features=1024, out_features=4096, bias=True)
                  (fc2): Linear(in_features=4096, out_features=1024, bias=True)
                )
                (norm1): LayerNorm((1024,), eps=1e-06, elementwise_affine=True)
                (norm2): LayerNorm((1024,), eps=1e-06, elementwise_affine=True)
                (drop_path1): DropPath(drop_prob=0.061)
                (drop_path2): DropPath(drop_prob=0.061)
              )
              (15): InternVisionEncoderLayer(
                (attn): InternAttention(
                  (qkv): Linear(in_features=1024, out_features=3072, bias=True)
                  (attn_drop): Dropout(p=0.0, inplace=False)
                  (proj_drop): Dropout(p=0.0, inplace=False)
                  (inner_attn): FlashAttention()
                  (proj): Linear(in_features=1024, out_features=1024, bias=True)
                )
                (mlp): InternMLP(
                  (act): GELUActivation()
                  (fc1): Linear(in_features=1024, out_features=4096, bias=True)
                  (fc2): Linear(in_features=4096, out_features=1024, bias=True)
                )
                (norm1): LayerNorm((1024,), eps=1e-06, elementwise_affine=True)
                (norm2): LayerNorm((1024,), eps=1e-06, elementwise_affine=True)
                (drop_path1): DropPath(drop_prob=0.065)
                (drop_path2): DropPath(drop_prob=0.065)
              )
              (16): InternVisionEncoderLayer(
                (attn): InternAttention(
                  (qkv): Linear(in_features=1024, out_features=3072, bias=True)
                  (attn_drop): Dropout(p=0.0, inplace=False)
                  (proj_drop): Dropout(p=0.0, inplace=False)
                  (inner_attn): FlashAttention()
                  (proj): Linear(in_features=1024, out_features=1024, bias=True)
                )
                (mlp): InternMLP(
                  (act): GELUActivation()
                  (fc1): Linear(in_features=1024, out_features=4096, bias=True)
                  (fc2): Linear(in_features=4096, out_features=1024, bias=True)
                )
                (norm1): LayerNorm((1024,), eps=1e-06, elementwise_affine=True)
                (norm2): LayerNorm((1024,), eps=1e-06, elementwise_affine=True)
                (drop_path1): DropPath(drop_prob=0.069)
                (drop_path2): DropPath(drop_prob=0.069)
              )
              (17): InternVisionEncoderLayer(
                (attn): InternAttention(
                  (qkv): Linear(in_features=1024, out_features=3072, bias=True)
                  (attn_drop): Dropout(p=0.0, inplace=False)
                  (proj_drop): Dropout(p=0.0, inplace=False)
                  (inner_attn): FlashAttention()
                  (proj): Linear(in_features=1024, out_features=1024, bias=True)
                )
                (mlp): InternMLP(
                  (act): GELUActivation()
                  (fc1): Linear(in_features=1024, out_features=4096, bias=True)
                  (fc2): Linear(in_features=4096, out_features=1024, bias=True)
                )
                (norm1): LayerNorm((1024,), eps=1e-06, elementwise_affine=True)
                (norm2): LayerNorm((1024,), eps=1e-06, elementwise_affine=True)
                (drop_path1): DropPath(drop_prob=0.074)
                (drop_path2): DropPath(drop_prob=0.074)
              )
              (18): InternVisionEncoderLayer(
                (attn): InternAttention(
                  (qkv): Linear(in_features=1024, out_features=3072, bias=True)
                  (attn_drop): Dropout(p=0.0, inplace=False)
                  (proj_drop): Dropout(p=0.0, inplace=False)
                  (inner_attn): FlashAttention()
                  (proj): Linear(in_features=1024, out_features=1024, bias=True)
                )
                (mlp): InternMLP(
                  (act): GELUActivation()
                  (fc1): Linear(in_features=1024, out_features=4096, bias=True)
                  (fc2): Linear(in_features=4096, out_features=1024, bias=True)
                )
                (norm1): LayerNorm((1024,), eps=1e-06, elementwise_affine=True)
                (norm2): LayerNorm((1024,), eps=1e-06, elementwise_affine=True)
                (drop_path1): DropPath(drop_prob=0.078)
                (drop_path2): DropPath(drop_prob=0.078)
              )
              (19): InternVisionEncoderLayer(
                (attn): InternAttention(
                  (qkv): Linear(in_features=1024, out_features=3072, bias=True)
                  (attn_drop): Dropout(p=0.0, inplace=False)
                  (proj_drop): Dropout(p=0.0, inplace=False)
                  (inner_attn): FlashAttention()
                  (proj): Linear(in_features=1024, out_features=1024, bias=True)
                )
                (mlp): InternMLP(
                  (act): GELUActivation()
                  (fc1): Linear(in_features=1024, out_features=4096, bias=True)
                  (fc2): Linear(in_features=4096, out_features=1024, bias=True)
                )
                (norm1): LayerNorm((1024,), eps=1e-06, elementwise_affine=True)
                (norm2): LayerNorm((1024,), eps=1e-06, elementwise_affine=True)
                (drop_path1): DropPath(drop_prob=0.083)
                (drop_path2): DropPath(drop_prob=0.083)
              )
              (20): InternVisionEncoderLayer(
                (attn): InternAttention(
                  (qkv): Linear(in_features=1024, out_features=3072, bias=True)
                  (attn_drop): Dropout(p=0.0, inplace=False)
                  (proj_drop): Dropout(p=0.0, inplace=False)
                  (inner_attn): FlashAttention()
                  (proj): Linear(in_features=1024, out_features=1024, bias=True)
                )
                (mlp): InternMLP(
                  (act): GELUActivation()
                  (fc1): Linear(in_features=1024, out_features=4096, bias=True)
                  (fc2): Linear(in_features=4096, out_features=1024, bias=True)
                )
                (norm1): LayerNorm((1024,), eps=1e-06, elementwise_affine=True)
                (norm2): LayerNorm((1024,), eps=1e-06, elementwise_affine=True)
                (drop_path1): DropPath(drop_prob=0.087)
                (drop_path2): DropPath(drop_prob=0.087)
              )
              (21): InternVisionEncoderLayer(
                (attn): InternAttention(
                  (qkv): Linear(in_features=1024, out_features=3072, bias=True)
                  (attn_drop): Dropout(p=0.0, inplace=False)
                  (proj_drop): Dropout(p=0.0, inplace=False)
                  (inner_attn): FlashAttention()
                  (proj): Linear(in_features=1024, out_features=1024, bias=True)
                )
                (mlp): InternMLP(
                  (act): GELUActivation()
                  (fc1): Linear(in_features=1024, out_features=4096, bias=True)
                  (fc2): Linear(in_features=4096, out_features=1024, bias=True)
                )
                (norm1): LayerNorm((1024,), eps=1e-06, elementwise_affine=True)
                (norm2): LayerNorm((1024,), eps=1e-06, elementwise_affine=True)
                (drop_path1): DropPath(drop_prob=0.091)
                (drop_path2): DropPath(drop_prob=0.091)
              )
              (22): InternVisionEncoderLayer(
                (attn): InternAttention(
                  (qkv): Linear(in_features=1024, out_features=3072, bias=True)
                  (attn_drop): Dropout(p=0.0, inplace=False)
                  (proj_drop): Dropout(p=0.0, inplace=False)
                  (inner_attn): FlashAttention()
                  (proj): Linear(in_features=1024, out_features=1024, bias=True)
                )
                (mlp): InternMLP(
                  (act): GELUActivation()
                  (fc1): Linear(in_features=1024, out_features=4096, bias=True)
                  (fc2): Linear(in_features=4096, out_features=1024, bias=True)
                )
                (norm1): LayerNorm((1024,), eps=1e-06, elementwise_affine=True)
                (norm2): LayerNorm((1024,), eps=1e-06, elementwise_affine=True)
                (drop_path1): DropPath(drop_prob=0.096)
                (drop_path2): DropPath(drop_prob=0.096)
              )
              (23): InternVisionEncoderLayer(
                (attn): InternAttention(
                  (qkv): Linear(in_features=1024, out_features=3072, bias=True)
                  (attn_drop): Dropout(p=0.0, inplace=False)
                  (proj_drop): Dropout(p=0.0, inplace=False)
                  (inner_attn): FlashAttention()
                  (proj): Linear(in_features=1024, out_features=1024, bias=True)
                )
                (mlp): InternMLP(
                  (act): GELUActivation()
                  (fc1): Linear(in_features=1024, out_features=4096, bias=True)
                  (fc2): Linear(in_features=4096, out_features=1024, bias=True)
                )
                (norm1): LayerNorm((1024,), eps=1e-06, elementwise_affine=True)
                (norm2): LayerNorm((1024,), eps=1e-06, elementwise_affine=True)
                (drop_path1): DropPath(drop_prob=0.100)
                (drop_path2): DropPath(drop_prob=0.100)
              )
            )
          )
        )
        (language_model): UniInternVLForCausalLM(
          (model): UniInternLLM(
            (embed_tokens): Embedding(151674, 896)
            (layers): ModuleList(
              (0-5): 6 x MixAttnDecoderLayer(
                (self_attn): MixedAttention(
                  (q_proj): lora.Linear(
                    (base_layer): Linear(in_features=896, out_features=896, bias=True)
                    (lora_dropout): ModuleDict(
                      (default): Dropout(p=0.05, inplace=False)
                    )
                    (lora_A): ModuleDict(
                      (default): Linear(in_features=896, out_features=16, bias=False)
                    )
                    (lora_B): ModuleDict(
                      (default): Linear(in_features=16, out_features=896, bias=False)
                    )
                    (lora_embedding_A): ParameterDict()
                    (lora_embedding_B): ParameterDict()
                    (lora_magnitude_vector): ModuleDict()
                  )
                  (k_proj): lora.Linear(
                    (base_layer): Linear(in_features=896, out_features=128, bias=True)
                    (lora_dropout): ModuleDict(
                      (default): Dropout(p=0.05, inplace=False)
                    )
                    (lora_A): ModuleDict(
                      (default): Linear(in_features=896, out_features=16, bias=False)
                    )
                    (lora_B): ModuleDict(
                      (default): Linear(in_features=16, out_features=128, bias=False)
                    )
                    (lora_embedding_A): ParameterDict()
                    (lora_embedding_B): ParameterDict()
                    (lora_magnitude_vector): ModuleDict()
                  )
                  (v_proj): lora.Linear(
                    (base_layer): Linear(in_features=896, out_features=128, bias=True)
                    (lora_dropout): ModuleDict(
                      (default): Dropout(p=0.05, inplace=False)
                    )
                    (lora_A): ModuleDict(
                      (default): Linear(in_features=896, out_features=16, bias=False)
                    )
                    (lora_B): ModuleDict(
                      (default): Linear(in_features=16, out_features=128, bias=False)
                    )
                    (lora_embedding_A): ParameterDict()
                    (lora_embedding_B): ParameterDict()
                    (lora_magnitude_vector): ModuleDict()
                  )
                  (o_proj): lora.Linear(
                    (base_layer): Linear(in_features=896, out_features=896, bias=False)
                    (lora_dropout): ModuleDict(
                      (default): Dropout(p=0.05, inplace=False)
                    )
                    (lora_A): ModuleDict(
                      (default): Linear(in_features=896, out_features=16, bias=False)
                    )
                    (lora_B): ModuleDict(
                      (default): Linear(in_features=16, out_features=896, bias=False)
                    )
                    (lora_embedding_A): ParameterDict()
                    (lora_embedding_B): ParameterDict()
                    (lora_magnitude_vector): ModuleDict()
                  )
                )
                (mlp): Qwen2MLP(
                  (gate_proj): Linear(in_features=896, out_features=4864, bias=False)
                  (up_proj): Linear(in_features=896, out_features=4864, bias=False)
                  (down_proj): Linear(in_features=4864, out_features=896, bias=False)
                  (act_fn): SiLU()
                )
                (input_layernorm): Qwen2RMSNorm((896,), eps=1e-06)
                (post_attention_layernorm): Qwen2RMSNorm((896,), eps=1e-06)
                (query_self_attn): QueryLayerWiseSelfFlashAttnQwenWithResidualNorm(
                  (task_self_attn): SafeMultiHeadAttentionwDropout(
                    (attn): FlashMHA(
                      (inner_attn): FlashAttention()
                      (out_proj): Linear(in_features=896, out_features=896, bias=True)
                    )
                    (proj_drop): Dropout(p=0.0, inplace=False)
                  )
                  (task_norm): Qwen2RMSNorm((896,), eps=1e-06)
                )
                (query_mlp_det): Qwen2MLP(
                  (gate_proj): Linear(in_features=896, out_features=4864, bias=False)
                  (up_proj): Linear(in_features=896, out_features=4864, bias=False)
                  (down_proj): Linear(in_features=4864, out_features=896, bias=False)
                  (act_fn): SiLU()
                )
                (query_mlp_map): Qwen2MLP(
                  (gate_proj): Linear(in_features=896, out_features=4864, bias=False)
                  (up_proj): Linear(in_features=896, out_features=4864, bias=False)
                  (down_proj): Linear(in_features=4864, out_features=896, bias=False)
                  (act_fn): SiLU()
                )
                (query_mlp_e2e): Qwen2MLP(
                  (gate_proj): Linear(in_features=896, out_features=4864, bias=False)
                  (up_proj): Linear(in_features=896, out_features=4864, bias=False)
                  (down_proj): Linear(in_features=4864, out_features=896, bias=False)
                  (act_fn): SiLU()
                )
              )
              (6-23): 18 x MixAttnDecoderLayer(
                (self_attn): MixedAttention(
                  (q_proj): lora.Linear(
                    (base_layer): Linear(in_features=896, out_features=896, bias=True)
                    (lora_dropout): ModuleDict(
                      (default): Dropout(p=0.05, inplace=False)
                    )
                    (lora_A): ModuleDict(
                      (default): Linear(in_features=896, out_features=16, bias=False)
                    )
                    (lora_B): ModuleDict(
                      (default): Linear(in_features=16, out_features=896, bias=False)
                    )
                    (lora_embedding_A): ParameterDict()
                    (lora_embedding_B): ParameterDict()
                    (lora_magnitude_vector): ModuleDict()
                  )
                  (k_proj): lora.Linear(
                    (base_layer): Linear(in_features=896, out_features=128, bias=True)
                    (lora_dropout): ModuleDict(
                      (default): Dropout(p=0.05, inplace=False)
                    )
                    (lora_A): ModuleDict(
                      (default): Linear(in_features=896, out_features=16, bias=False)
                    )
                    (lora_B): ModuleDict(
                      (default): Linear(in_features=16, out_features=128, bias=False)
                    )
                    (lora_embedding_A): ParameterDict()
                    (lora_embedding_B): ParameterDict()
                    (lora_magnitude_vector): ModuleDict()
                  )
                  (v_proj): lora.Linear(
                    (base_layer): Linear(in_features=896, out_features=128, bias=True)
                    (lora_dropout): ModuleDict(
                      (default): Dropout(p=0.05, inplace=False)
                    )
                    (lora_A): ModuleDict(
                      (default): Linear(in_features=896, out_features=16, bias=False)
                    )
                    (lora_B): ModuleDict(
                      (default): Linear(in_features=16, out_features=128, bias=False)
                    )
                    (lora_embedding_A): ParameterDict()
                    (lora_embedding_B): ParameterDict()
                    (lora_magnitude_vector): ModuleDict()
                  )
                  (o_proj): lora.Linear(
                    (base_layer): Linear(in_features=896, out_features=896, bias=False)
                    (lora_dropout): ModuleDict(
                      (default): Dropout(p=0.05, inplace=False)
                    )
                    (lora_A): ModuleDict(
                      (default): Linear(in_features=896, out_features=16, bias=False)
                    )
                    (lora_B): ModuleDict(
                      (default): Linear(in_features=16, out_features=896, bias=False)
                    )
                    (lora_embedding_A): ParameterDict()
                    (lora_embedding_B): ParameterDict()
                    (lora_magnitude_vector): ModuleDict()
                  )
                )
                (mlp): Qwen2MLP(
                  (gate_proj): Linear(in_features=896, out_features=4864, bias=False)
                  (up_proj): Linear(in_features=896, out_features=4864, bias=False)
                  (down_proj): Linear(in_features=4864, out_features=896, bias=False)
                  (act_fn): SiLU()
                )
                (input_layernorm): Qwen2RMSNorm((896,), eps=1e-06)
                (post_attention_layernorm): Qwen2RMSNorm((896,), eps=1e-06)
              )
            )
            (norm): Qwen2RMSNorm((896,), eps=1e-06)
            (rotary_emb): Qwen2RotaryEmbedding()
          )
          (lm_head): Linear(in_features=896, out_features=151674, bias=False)
        )
        (mlp1): Sequential(
          (0): LayerNorm((4096,), eps=1e-05, elementwise_affine=True)
          (1): Linear(in_features=4096, out_features=896, bias=True)
          (2): GELU(approximate='none')
          (3): Linear(in_features=896, out_features=896, bias=True)
        )
      )
    )
  )
)
2026-04-23 15:31:45,753 - mmdet - INFO - Start running, host: luban@k8s-deploy-59lnjx-1756656071879-5bdcbd478-klkhf, work_dir: /nfs/dataset-ofs-voyager-research/ywzhang/code/OneDrive/work_dirs/stage3_joint_training
2026-04-23 15:31:45,754 - mmdet - INFO - Hooks will be executed in the following order:
before_run:
(VERY_HIGH   ) CosineAnnealingLrUpdaterHook       
…
